…
logdir: results/corruption
dataset_path: your_dataset_path
save_model: True
corruption_agent: IQL
corruption_seed: 0
corruption_mode: random
corruption_obs: 1.0
corruption_act: 0.0
corruption_rew: 0.0
corruption_rate: 0.3
use_original: 0
same_index: 0
froce_attack: 0
logfile: RDT_Walker2d-v4_rnd_obs_0_20250429124609_87cd9844-7ff5-4862-8b6f-1be7c9e35567_diff_att_8
Load new dataset from your_dataset_path/log_attack_data/Walker2d-v4/random_0_ratio_0.1_obs_1.0_0.3.pth
random observations
Attack name: _ratio_0.1_obs_1.0_0.3
Dataset: 104 trajectories
State mean: [[ … std: [[… Network: 
DecisionTransformer(
  (emb_norm): LayerNorm((128,), eps=1e-05, elementwise_affine=True)
  (out_norm): LayerNorm((128,), eps=1e-05, elementwise_affine=True)
  (timestep_emb): Embedding(1020, 128)
  (state_emb): Linear(in_features=17, out_features=128, bias=True)
  (action_emb): Linear(in_features=6, out_features=128, bias=True)
  (return_emb): Linear(in_features=1, out_features=128, bias=True)
  (blocks): ModuleList(
    (0-2): 3 x TransformerBlock(
      (norm1): LayerNorm((128,), eps=1e-05, elementwise_affine=True)
      (norm2): LayerNorm((128,), eps=1e-05, elementwise_affine=True)
      (drop): Dropout(p=0.1, inplace=False)
      (attention): MultiheadDiffAttn(
        (q_proj): Linear(in_features=128, out_features=128, bias=False)
        (k_proj): Linear(in_features=128, out_features=128, bias=False)
        (v_proj): Linear(in_features=128, out_features=128, bias=False)
        (out_proj): Linear(in_features=128, out_features=128, bias=False)
        (subln): RMSNorm(dim=16, eps=1e-05, elementwise_affine=True)
      )
      (mlp): Sequential(
        (0): Linear(in_features=128, out_features=512, bias=True)
        (1): GELU(approximate='none')
        (2): Linear(in_features=512, out_features=128, bias=True)
        (3): Dropout(p=0.1, inplace=False)
      )
    )
  )
  (predict_dropout): Dropout(p=0.1, inplace=False)
  (action_head): MLPBlock(
    (model): Sequential(
      (0): Linear(in_features=128, out_features=6, bias=True)
      (1): Tanh()
    )
  )
  (reward_head): MLPBlock(
    (model): Sequential(
      (0): Linear(in_features=128, out_features=128, bias=True)
      (1): GELU(approximate='none')
      (2): Linear(in_features=128, out_features=1, bias=True)
    )
  )
)
Total parameters: 745367
------------------------------------------------
| epoch                            | 0         |
| eval/                            |           |
|    12000.0_normalized_score_mean | 1.52187   |
|    12000.0_normalized_score_std  | 0.0759109 |
|    12000.0_reward_mean           | 1.52187   |
|    12000.0_reward_std            | 0.0759109 |
…
